name: "TILES"
input: "data"
input_shape {
  dim: 1000
  dim: 3
  dim: 64
  dim: 64
}
force_backward: true

### NETWORK ###

layer {
  name: "conv1"
  type: "Convolution"
  bottom: "data"
  top: "conv1"
  param {
    lr_mult: 1
  }
  param {
    lr_mult: 0.1
  }
  convolution_param {
    num_output: 32
    pad: 4
    kernel_size: 9
    weight_filler {
      type: "gaussian"
      std: 0.001
    }
    bias_filler {
      type: "constant"
      value: 0
    }
  }
}
layer {
  bottom: "conv1"
  top: "conv1"
  name: "relu1"
  type: "ReLU"
}

layer {
  name: "conv2"
  type: "Convolution"
  bottom: "conv1"
  top: "conv2"
  param {
    lr_mult: 1
  }
  param {
    lr_mult: 0.1
  }
  convolution_param {
    num_output: 16
    pad: 4
    kernel_size: 9
    weight_filler {
      type: "gaussian"
      std: 0.001
    }
    bias_filler {
      type: "constant"
      value: 0
    }
  }
}
layer {
  bottom: "conv2"
  top: "conv2"
  name: "relu2"
  type: "ReLU"
}

layer {
  name: "conv3"
  type: "Convolution"
  bottom: "conv2"
  top: "conv_result"
  param {
    lr_mult: 1
  }
  param {
    lr_mult: 0.1
  }
  convolution_param {
    num_output: 2
    pad: 4
    kernel_size: 9
    weight_filler {
      type: "gaussian"
      std: 0.001
    }
    bias_filler {
      type: "constant"
      value: 0
    }
  }
}

### END ###
